…
ecution":{"iopub.status.busy":"2024-07-21T14:02:25.099174Z","iopub.execute_input":"2024-07-21T14:02:25.099591Z","iopub.status.idle":"2024-07-21T14:02:25.586644Z","shell.execute_reply.started":"2024-07-21T14:02:25.099553Z","shell.execute_reply":"2024-07-21T14:02:25.581251Z"},"trusted":true},"execution_count":9,"outputs":[{"name":"stdout","text":"Model: \"sequential\"\n_________________________________________________________________\n Layer (type)                Output Shape              Param #   \n=================================================================\n conv2d (Conv2D)             (None, 222, 222, 32)      896       \n                                                                 \n batch_normalization (BatchN  (None, 222, 222, 32)     128       \n ormalization)                                                   \n                                                                 \n max_pooling2d (MaxPooling2D  (None, 111, 111, 32)     0         \n )                                                               \n                                                                 \n conv2d_1 (Conv2D)           (None, 109, 109, 64)      18496     \n                                                                 \n batch_normalization_1 (Batc  (None, 109, 109, 64)     256       \n hNormalization)                                                 \n                                                                 \n max_pooling2d_1 (MaxPooling  (None, 54, 54, 64)       0         \n 2D)                                                             \n                                                                 \n dropout (Dropout)           (None, 54, 54, 64)        0         \n                                                                 \n conv2d_2 (Conv2D)           (None, 52, 52, 128)       73856     \n                                                                 \n batch_normalization_2 (Batc  (None, 52, 52, 128)      512       \n hNormalization)                                                 \n                                                                 \n max_pooling2d_2 (MaxPooling  (None, 26, 26, 128)      0         \n 2D)                                                             \n                                                                 \n dropout_1 (Dropout)         (None, 26, 26, 128)       0         \n                                                                 \n flatten (Flatten)           (None, 86528)             0         \n                                                                 \n dense (Dense)               (None, 256)               22151424  \n                                                                 \n dropout_2 (Dropout)         (None, 256)               0         \n                                                                 \n dense_1 (Dense)             (None, 128)               32896     \n                                                                 \n dropout_3 (Dropout)         (None, 128)               0         \n                                                                 \n dense_2 (Dense)             (None, 1)                 129       \n                                                                 \n=================================================================\nTotal params: 22,278,593\nTrainable params: 22,278,145\nNon-trainable params: 448\n_________________________________________________________________\n","output_type":"stream"}]},{"cell_type":"code","source":"tf.keras.utils.plot_model(model, to_file='model.p
…
